experiments/checkpoints/classifier_best.pth (torch, 35363 bytes, 25 tensors)

0.embeddings.0.weight f4 [9, 4]
2.816754 -0.59485006 -0.59945995 -0.43517727 -0.72338456 -0.6777896 1.2764598 0.9020327
-1.972833 -1.7069327 0.39802253 -0.0424798 -0.6507515 0.3146495 -0.84109175 0.7224051
-1.5845188 -0.20455676 -0.36350143 -0.98191476 0.26207513 -0.9310589 1.8158242 0.07416137
-0.0072292443 -0.08313355 -0.9490745 1.4623919 0.50193524 -3.0235353 0.82237476 0.5366022
0.23977478 -1.2036722 0.07876518 0.17354202
00000000: b345 3440 1848 18bf 3576 19bf 8ecf debe
00000010: bb2f 39bf 9f83 2dbf 0963 a33f 9deb 663f
00000020: cb85 fcbf c57c dabf 9cc9 cb3e 4cff 2dbd
00000030: a697 26bf bd19 a13e ca51 57bf 8aef 383f
00000040: 83d1 cabf 5477 51be dc1c babe c45e 7bbf
00000050: b62e 863e e059 6ebf ed6c e83f ebe1 973d
00000060: 4ce3 ecbb ec41 aabd 8cf6 72bf a82f bb3f
00000070: d47e 003f 9a81 41c0 2787 523f c35e 093f
00000080: 8587 753e ee11 9abf a44f a13d 00b5 313e

0.embeddings.1.weight f4 [16, 8]
0.5343684 0.26806417 -0.22745375 1.1770207 -0.8455117 -0.0074543254 -0.27723077 -0.821457
0.37817836 0.7440616 0.0761201 -0.48938748 1.2306089 -1.0313956 0.79945254 0.8302617
0.24398088 2.1731832 2.1733918 -0.67865264 1.670744 1.6036667 -0.09134197 1.6508914
0.014724364 0.440505 1.9756228 -0.96032363 0.7492484 1.4951744 1.6598629 0.35775083
-1.0939822 0.81413335 0.0030423938 -1.733964 0.23902376 0.0069730985 -0.36523473 2.2682874
0.38097006 1.0239663 0.71050024 -0.73253185 -0.81032765 -0.92747825 2.0175214 0.3763715
0.28806794 -0.58748883 1.1142676 -0.2986143 -0.40499172 -0.996562 -0.12326614 -0.5429508
0.19849059 0.66678137 -0.4358659 -0.72936165 0.18061389 -0.7556637 -0.4548128 1.7503276e-05
0.37799773 0.13630506 -0.5686418 -0.62356937 -0.21628691 0.6084017 -0.18073483 -2.4201226
-0.24529263 -0.63401514 -0.115947455 1.0112484 -0.20578085 0.8414598 0.8620577 1.8347878
-0.9974265 0.21805897 -1.3895059 0.8912979 -0.24482739 -0.032710496 -0.60737014 -1.1520091
-0.16802473 -0.083596885 -0.60483676 1.9854786 0.6324872 -1.4068463 -0.9394225 -0.09610987
-1.0473081 0.3776512 -0.16920325 -0.6988514 -0.7503884 -1.4078838 1.8775781 -0.99051845
-0.23566957 -0.7489219 -0.8931666 -0.2589147 -1.1110412 -0.25671795 0.87462837 -0.12879556
-0.9645375 2.0177422 -1.327896 -0.8902107 -2.4165897 0.6942588 -1.9501629 -0.61690116
0.118801996 1.4230952 2.0636678 1.0112832 -0.17121495 0.17672081 -1.2761443 2.263066
00000000: 5ecc 083f b53f 893e a3e9 68be 9da8 963f
00000010: 7473 58bf 6a43 f4bb 31f1 8dbe 024b 52bf
00000020: 98a0 c13e d27a 3e3f dbe4 9b3d ff90 fabe
00000030: 9884 9d3f c504 84bf eca8 4c3f 088c 543f
00000040: 20d6 793e 6f15 0b40 da18 0b40 2ebc 2dbf
00000050: f0da d53f f344 cd3f 8011 bbbd 6950 d33f
00000060: 753e 713c df89 e13e 35e1 fc3f c5d7 75bf
00000070: bece 3f3f e061 bf3f 6376 d43f 1e2b b73e
00000080: 9c07 8cbf 0b6b 503f e662 473b 88f2 ddbf
00000090: a5c2 743e 977e e43b 0c00 bbbe 9f2b 1140
000000a0: 820e c33e 5411 833f 58e3 353f 3587 3bbf
000000b0: a271 4fbf 376f 6dbf 121f 0140 c4b3 c03e
000000c0: a47d 933e ab65 16bf 52a0 8e3f f9e3 98be
000000d0: 135b cfbe b01e 7fbf f572 fcbd d3fe 0abf
000000e0: 1e41 4b3e 2fb2 2a3f d129 dfbe 72b7 3abf
000000f0: d9f2 383e 2d73 41bf 39dd e8be 00d4 9237
00000100: eb88 c13e 8e93 0b3e 8292 11bf 3ea2 1fbf
00000110: 517a 5dbe 37c0 1b3f 8d12 39be 4ae3 1ac0
00000120: fe2d 7bbe d14e 22bf dc75 edbd 9670 813f
00000130: 37b8 52be e969 573f d0af 5c3f 54da ea3f
00000140: 5857 7fbf da4a 5f3e 54db b1bf 192c 643f
00000150: 08b4 7abe 71fb 05bd 9c7c 1bbf 0975 93bf
00000160: ad0e 2cbe d834 abbd 95d6 1abf 2a24 fe3f
00000170: aeea 213f 8a13 b4bf fe7d 70bf 40d5 c4bd
00000180: 310e 86bf 805b c13e 9e43 2dbe ede7 32bf
00000190: 7419 40bf 8935 b4bf 7b54 f03f 9e92 7dbf
000001a0: 5d53 71be 58b9 3fbf 91a6 64bf 7890 84be
000001b0: 9936 8ebf 8970 83be a5e7 5f3f fce2 03be
000001c0: eeeb 76bf b022 0140 7ff8 a9bf d9e4 63bf
000001d0: 68a9 1ac0 f2ba 313f f09e f9bf 3ced 1dbf
000001e0: 764e f33d fc27 b63f 2213 0440 ba71 813f
000001f0: f952 2fbe 4df6 343e b258 a3bf 13d6 1040

0.embeddings.2.weight f4 [7, 3]
0.75983006 -0.12297563 0.20503144 0.19056974 -0.7611547 0.3844404 -0.51996756 0.10059009
-1.0884095 1.2094487 -0.18149842 1.1840639 -0.2755683 0.23906311 -0.45015475 0.7935474
-1.3837577 -0.66941416 0.8564244 1.5571088 -0.5947819
00000000: 3984 423f a6da fbbd c3f3 513e b724 433e
00000010: 09db 42bf 5fd5 c43e 981c 05bf 2d02 ce3d
00000020: 0151 8bbf 37cf 9a3f b9da 39be 688f 973f
00000030: 4a17 8dbe f6cc 743e af7a e6be ec25 4b3f
00000040: f91e b1bf ba5e 2bbf a13e 5b3f 574f c73f
00000050: a043 18bf

0.embeddings.3.weight f4 [15, 7]
0.2313756 2.0859313 -0.76199347 -1.5181024 -0.4204712 -0.4061324 -1.2943051 1.4664367
-0.1724333 -1.1894662 0.14010407 0.6402494 -0.22457062 0.38920003 -0.11981611 0.232399
-0.36970928 -1.622979 -0.34735978 2.0988262 -0.5551976 0.38975927 -2.2568977 0.3716343
0.15768884 -0.96197635 -0.6241851 0.17558502 -1.1179689 1.360141 -1.0306442 -0.6229453
0.8924101 0.73613644 0.25111082 1.7128825 1.3347269 -1.2510521 0.45419696 0.6862531
-0.6831357 -0.8443977 -1.0976913 1.4223484 -1.1312001 0.41885144 -0.49348393 -0.3184108
-0.20289966 -0.19247065 1.659275 0.646027 1.168749 0.05617663 -0.929019 0.24247633
1.2784475 -0.8291658 2.063591 0.31825623 -1.4755957 -0.19932415 0.033921625 0.31666613
0.38379782 -0.7997327 -0.6780267 0.85178125 -0.7572301 -0.17494845 -0.36884627 -1.5853012
-0.8465479 -0.36188132 1.7141573 -0.09006376 -0.5355158 0.50175893 0.7223387 0.74598575
1.5966774 0.7011111 1.8934803 -1.1423938 -2.23522 -0.5920325 0.42190343 0.8510372
0.293056 0.4572228 -0.5988612 0.7047473 -1.0653516 -0.19078206 0.80791444 -0.80820245
-2.147601 -0.16609877 -0.1786819 2.0756187 0.121419005 3.195109 -0.9270115 -0.12530728
-1.6536236
00000000: baed 6c3e e67f 0540 0112 43bf 2e51 c2bf
00000010: 0048 d7be 96f0 cfbe caab a5bf 33b4 bb3f
00000020: 5b92 30be 6e40 98bf 7177 0f3e 62e7 233f
00000030: d7f5 65be 3a45 c73e 2662 f5bd 01fa 6d3e
00000040: 894a bdbe c7bd cfbf 24d9 b1be 2b53 0640
00000050: 6e21 0ebf 878e c73e 0371 10c0 da46 be3e
00000060: 2f79 213e 1544 76bf 98ca 1fbf 8fcc 333e
00000070: 9b19 8fbf 1a19 ae3f 26ec 83bf 5879 1fbf
00000080: fd74 643f 7073 3c3f 9991 803e bc3f db3f
00000090: 55d8 aa3f 7a22 a0bf 818c e83e 48ae 2f3f
000000a0: fbe1 2ebf 732a 58bf 2681 8cbf 830f b63f
000000b0: 2acb 90bf b273 d63e eda9 fcbe be06 a3be
000000c0: eec4 4fbe 0717 45be 2063 d43f 0762 253f
000000d0: 9199 953f 7719 663d 30d4 6dbf b74b 783e
000000e0: 2ba4 a33f 3644 54bf e011 0440 7bf2 a23e
000000f0: 52e0 bcbf a11b 4cbe 67f1 0a3d 1022 a23e
00000100: 2681 c43e 48bb 4cbf 2893 2dbf 560e 5a3f
00000110: d5d9 41bf b025 33be 6bd9 bcbe 26eb cabf
00000120: 5db7 58bf 8248 b9be 8269 db3f 5973 b8bd
00000130: 9017 09bf 4673 003f 30eb 383f ecf8 3e3f
00000140: ed5f cc3f 047c 333f 905d f23f f639 92bf
00000150: d80d 0fc0 718f 17bf ba03 d83e 93dd 593f
00000160: 700b 963e 1b19 ea3e f84e 19bf 526a 343f
00000170: 715d 88bf 5f5c 43be 7bd3 4e3f 5be6 4ebf
00000180: 4b72 09c0 cc15 2abe 63f8 36be f0d6 0440
00000190: 87aa f83d aa7c 4c40 a050 6dbf 8d50 00be
000001a0: f0a9 d3bf

0.embeddings.4.weight f4 [6, 3]
-1.5035697 0.89356405 -0.49077326 -0.11253186 -1.2293255 -1.5712985 1.0997844 -0.6742571
-1.8664733 -1.7767344 -0.30939245 1.1702558 -1.024958 0.038862072 -0.3835149 -0.25289333
-0.51333994 -0.35713702
00000000: f974 c0bf 9dc0 643f a246 fbbe 1b77 e6bd
00000010: 8a5a 9dbf 4f20 c9bf bcc5 8c3f 1d9c 2cbf
00000020: 99e8 eebf 086c e3bf b068 9ebe f1ca 953f
00000030: d331 83bf d62d 1f3d 115c c4be 3c7b 81be
00000040: 3f6a 03bf aada b6be

0.embeddings.5.weight f4 [5, 2]
0.7265539 0.7782161 1.3554016 -0.204153 0.24692927 -1.4062223 0.5735652 -0.76204437
-0.45403892 -0.75628674
00000000: 70ff 393f 2c39 473f cd7d ad3f 7c0d 51be
00000010: 07db 7c3e 18ff b3bf 2bd5 123f 5715 43bf
00000020: ca77 e8be 029c 41bf

0.embeddings.6.weight f4 [2, 1]
-1.3392583 2.012232
00000000: d16c abbf 69c8 0040

0.embeddings.7.weight f4 [42, 21]
0.8150412 -0.7533337 1.5705576 -1.7809772 -1.0682697 -0.44132134 -0.6561797 1.495736
-1.1138061 2.1773481 -0.92030776 -0.869721 -0.010785158 -0.051035292 0.4290068 -0.2854781
1.2349968 -1.8122675 0.21729757 0.6688536 -1.1547884 0.8517369 1.5543393 0.19155322
0.06804765 -0.113497555 0.37103447 0.3499515 -0.5312764 1.9509177 -0.47677574 1.3149239
-0.28900224 1.425478 -0.469994 -1.6081812 0.8034997 -0.09342917 -2.8601143 0.4510746
1.4481884 -1.0744987 -0.18036939 0.52324647 -0.75684494 1.6898701 0.45459294 -0.6902007
-1.5210568 -0.44424677 0.5222156 0.25839102 0.7240633 -1.2697175 0.43624523 -0.72120297
-0.35007375 -0.44260496 1.298653 0.43042105 0.07028389 -1.3541691 0.86223257 -0.15848611
0.71540505 -0.57990503 -0.18533742 -0.5089164 0.49015108 1.0044323 0.035703767 0.24759927
-0.7018973 -0.17134838 0.910412 0.07676969 -0.5173098 0.5874078 0.37158856 0.2792107
-0.90583646 -0.19372807 0.45894894 1.0876567 -0.47505274 1.7558308 -0.36806515 0.945504
-0.61779565 1.115519 -0.10622745 1.6037074 0.102105945 1.9189109 -0.46061483 -0.47605854
2.2121732 1.2526802 -0.6795593 1.8396214 -1.1872153 -0.41072246 -0.7522864 -0.3927106
1.3143277 -0.32383713 -0.3761325 2.2344265 -0.33159173 1.8641958 -0.10284607 -0.6885299
-0.303784 0.90124303 0.6260218 -0.85534513 -0.09497236 -1.2123846 3.161756 2.2868948
-0.67950296 -0.9845926 -0.07728514 -1.0322442 -0.14108993 -0.525531 -1.180433 -1.0913734
-0.43342942 -0.023740463 0.042007525 -0.33799702 0.14704913 1.4892477 0.86579293 0.5573125
-0.643983 1.1586009 -0.7514077 -1.4581239 0.08028646 -0.0017553299 -0.41919667 -1.3894839
0.93386376 -0.38277623 0.6729968 0.72724265 -0.6659845 1.5843098 0.3865814 0.054949015
-0.5321538 1.4358734 -0.30289084 -0.4512446 -1.4983463 0.015296626 -1.4962014 -0.21115674
0.7245724 1.2553433 0.80293673 1.5499982 -0.63723814 1.4162596 -0.9193714 -0.018780928
-0.46485123 2.2512016 1.161308 0.8956487 -0.78521365 1.3992945 2.2178047 0.4935614
1.237888 -0.12348687 0.09054611 0.4578945 0.66660446 -0.76752687 -0.42146817 0.57756466
0.6609756 0.032053974 0.798162 -1.1031033 1.048592 0.17769796 -1.4350847 0.20016773
-2.0728605 0.8214401 0.5315017 0.6363944 -0.50637674 0.038449515 0.346187 1.2479862
0.022430865 -0.074162185 -0.81813616 -0.26591265 -0.69207835 -0.86621857 -0.09305105 -0.7745693
0.33765408 0.7508609 -0.19117567 -0.03659992 -0.12591708 1.3776382 0.105312005 -0.1945664
0.36173183 0.5974932 -0.062726736 1.1854068 0.895783 -1.8884659 1.3023773 1.1552371
-2.0702364 1.5033418 0.3242131 0.19048984 0.15437996 0.30204123 0.71293825 -0.09523403
0.25986457 -0.20265965 0.6090395 -1.4283174 1.6615486 0.16886677 -1.1289017 1.3816054
-0.5559209 -1.0653089 0.16771212 0.3723717 -0.21004042 -2.0851212 0.6635635 1.7691362
-1.087899 -1.3432916 0.39124578 -0.07597745 -1.473834 -1.1136665 -0.84995365 0.87129927
00000000: 8aa6 503f 7ada 40bf 0808 c93f 10f7 e3bf
00000010: 10bd 88bf dff4 e1be 65fb 27bf 4774 bf3f
00000020: 3391 8ebf ac59 0b40 4a99 6bbf 09a6 5ebf
00000030: 3bb4 30bc 620a 51bd c7a6 db3e 2f2a 92be
00000040: 6014 9e3f 62f8 e7bf 4183 5e3e fd39 2b3f
00000050: 1bd0 93bf 6e0b 5a3f 97f4 c63f 8726 443e
00000060: 915c 8b3d 6871 e8bd 3bf8 bd3e d82c b33e
00000070: bb01 08bf acb7 f93f f31b f4be 6d4f a83f
00000080: 1af8 93be 1076 b63f 0ea3 f0be e2d8 cdbf
00000090: 28b2 4d3f cb57 bfbd 1d0c 37c0 40f3 e63e
000000a0: 3d5e b93f 2c89 89bf c1b2 38be 7bf3 053f
000000b0: 97c0 41bf aa4d d83f 68c0 e83e feb0 30bf
000000c0: fdb1 c2bf 5074 e3be ecaf 053f d44b 843e
000000d0: 365c 393f 1a86 a2bf 895b df3e c2a0 38bf
000000e0: de3c b3be 1e9d e2be 433a a63f 2660 dc3e
000000f0: 00f1 8f3d 6a55 adbf 46bb 5c3f 2f4a 22be
00000100: c924 373f a874 14bf 18c9 3dbe 5848 02bf
00000110: 15f5 fa3e 3d91 803f 1d3e 123d aa8a 7d3e
00000120: 8baf 33bf f375 2fbe c310 693f 6d39 9d3d
00000130: 6a6e 04bf 5c60 163f db40 be3e b4f4 8e3e
00000140: e6e4 67bf a760 46be 5bfb ea3e 5638 8b3f
00000150: 1d3a f3be 10bf e03f 0973 bcbe 8d0c 723f
00000160: db27 1ebf 54c9 8e3f c78d d9bd 4946 cd3f
00000170: ec1c d13d df9e f53f b5d5 ebbe f2bd f3be
00000180: 3f94 0d40 d357 a03f 99f7 2dbf b778 eb3f
00000190: acf6 97bf 374a d2be d795 40bf 5d11 c9be
000001a0: e43b a83f fbcd a5be 7094 c0be d800 0f40
000001b0: 64c6 a9be f89d ee3f f6a0 d2bd 7f43 30bf
000001c0: 9489 9bbe ddb7 663f f742 203f e6f7 5abf
000001d0: de80 c2bd 6b2f 9bbf 365a 4a40 7c5c 1240
000001e0: e8f3 2dbf 430e 7cbf ac47 9ebd 9420 84bf
000001f0: e179 10be 3389 06bf 6e18 97bf 20b2 8bbf
00000200: 76ea ddbe 5c7b c2bc 1510 2c3d f20d adbe
00000210: 0c94 163e ab9f be3f 9ba4 5d3f 08ac 0e3f
00000220: 12dc 24bf 094d 943f 415c 40bf cea3 babf
00000230: 3a6d a43d 1913 e6ba f2a0 d6be 9cda b1bf
00000240: b211 6f3f 3ffb c3be 8549 2c3f 932c 3a3f
00000250: f67d 2abf aaca ca3f ffed c53e 3812 613d
00000260: 3b3b 08bf b3ca b73f 8214 9bbe 8809 e7be
00000270: d0c9 bfbf b39e 7a3c 8783 bfbf 7939 58be
00000280: 947d 393f 17af a03f 438d 4d3f 5766 c63f
00000290: 0a22 23bf ff47 b53f ed5b 6bbf 76da 99bc
000002a0: fb00 eebe b013 1040 bea5 943f 3c49 653f
000002b0: c303 49bf 151c b33f 83f0 0d40 14b4 fc3e
000002c0: 1d73 9e3f afe6 fcbd 3d70 b93d 2671 ea3e
000002d0: 97a6 2a3f a47c 44bf adca d7be 47db 133f
000002e0: b235 293f 074b 033d 5854 4c3f 7d32 8dbf
000002f0: 4338 863f 74f6 353e dbb0 b7bf c5f8 4c3e
00000300: bfa9 04c0 e649 523f 7f10 083f beea 223f
00000310: e8a1 01bf 3d7d 1d3d 6c3f b13e 03be 9f3f
00000320: efc0 b73c 58e2 97bd 5f71 51bf b425 88be
00000330: 0c2c 31bf 80c0 5dbf 8d91 bebd 2c4a 46bf
00000340: ffe0 ac3e 6c38 403f 8ec3 43be cce9 15bd
00000350: 68f0 00be 7356 b03f d2ad d73d 6a3c 47be
00000360: ea34 b93e 50f5 183f e076 80bd 69bb 973f
00000370: 0952 653f 40b9 f1bf 4db4 a63f cfde 933f
00000380: c17e 04c0 816d c03f 42ff a53e c50f 433e
00000390: c815 1e3e 26a5 9a3e 1f83 363f 0f0a c3bd
000003a0: f80c 853e 0386 4fbe 03ea 1b3f 1bd3 b6bf
000003b0: a0ad d43f 69eb 2c3e da7f 90bf 72d8 b03f
000003c0: d550 0ebf 0b5c 88bf babc 2b3e 81a7 be3e
000003d0: d614 57be a072 05c0 4cdf 293f 0e73 e23f
000003e0: 4640 8bbf fbf0 abbf 5e51 c83e 119a 9bbd
000003f0: 98a6 bcbf a08c 8ebf 9096 59bf 780d 5f3f

1.weight f4 [55]
1.0081594 0.97606593 0.98766357 0.9866386 0.9968848 0.97572726 1.0022807 1.005606
1.0159771 0.9757065 0.9872091 1.0005476 1.0328257 1.0178465 0.99265975 0.98872
0.97442496 0.97738075 0.9944107 1.0212555 1.0063133 1.0209234 1.0310422 0.9908237
1.002777 0.9592284 0.96980214 0.9723489 0.9920697 0.98967916 0.9762972 1.0085618
1.0144421 0.97602445 0.9873833 0.9940166 1.0184758 0.9901329 1.0022677 0.9922179
0.98675185 0.9975041 0.9898626 0.9760936 0.98382956 0.9930044 0.971825 0.98639566
1.001294 1.041765 0.965279 1.0449708 1.0566813 0.984064 1.0121888
00000000: 5e0b 813f 75df 793f 85d7 7c3f 5994 7c3f
00000010: d833 7f3f 43c9 793f bc4a 803f b3b7 803f
00000020: 8a0b 823f e7c7 793f bcb9 7c3f f211 803f
00000030: a233 843f cb48 823f f31e 7e3f c11c 7d3f
00000040: ea73 793f a035 7a3f b391 7e3f 80b8 823f
00000050: e0ce 803f 9ead 823f 31f9 833f 9fa6 7d3f
00000060: ff5a 803f fe8f 753f f444 783f dceb 783f
00000070: 48f8 7d3f 9d5b 7d3f 9dee 793f 8e18 813f
00000080: 3dd9 813f bddc 793f 27c5 7c3f df77 7e3f
00000090: 6a5d 823f 5a79 7d3f 4f4a 803f fe01 7e3f
000000a0: c59b 7c3f 6e5c 7f3f a367 7d3f 45e1 793f
000000b0: 41dc 7b3f 8935 7e3f 86c9 783f 6d84 7c3f
000000c0: 672a 803f 8e58 853f 861c 773f 9ac1 853f
000000d0: 5541 873f 9eeb 7b3f 678f 813f

1.bias f4 [55]
0.010100745 -0.012896481 -0.015867632 -0.021813324 -0.02382502 -0.0011198295 -0.018167423 -0.029829456
-0.028340187 -0.03351857 -0.019848002 -0.00792318 -0.01814125 0.007973708 0.017321931 0.03331832
8.011585e-05 -0.018044114 0.005029858 0.0056131943 -0.0126798125 0.012452201 -0.019562624 -0.028241824
0.0302039 -0.026187414 0.0022974927 0.010628179 0.011370316 0.005541443 0.030643566 -0.003788428
-0.010396618 0.00050997135 0.01841559 0.019120561 -0.022053119 -0.0033003055 0.008149969 0.018402535
-0.013354793 0.0124855805 0.030578693 0.028956786 0.014374981 -0.03437783 0.0005858566 -0.01966002
-0.0014585075 0.028067213 -0.023515917 0.013298121 0.005457099 0.017930306 0.010714036
00000000: 987d 253c c34b 53bc d6fc 81bc dbb1 b2bc
00000010: b02c c3bc 3ec7 92ba d9d3 94bc e75c f4bc
00000020: ae29 e8bc c54a 09bd 4798 a2bc 3ad0 01bc
00000030: f59c 94bc 28a4 023c b9e6 8d3c ca78 083d
00000040: df03 a838 40d1 93bc 82d1 a43b e3ee b73b
00000050: fdbe 4fbc 5104 4c3c cc41 a0bc 665b e7bc
00000060: 2b6e f73c fd86 d6bc 8891 163b d021 2e3c
00000070: 904a 3a3c fe94 b53b 3708 fb3c 4647 78bb
00000080: 9456 2abc 99af 053a 4bdc 963c b9a2 9c3c
00000090: bea8 b4bc f049 58bb 7387 053c eac0 963c
000000a0: 10ce 5abc 5290 4c3c 2b80 fa3c c836 ed3c
000000b0: 0a85 6b3c c4cf 0cbd 2c94 193a 0d0e a1bc
000000c0: 642b bfba 36ed e53c 74a4 c0bc 5de0 593c
000000d0: 77d1 b23b 94e2 923c ed89 2f3c

1.running_mean f4 [55]
1.7324765 -0.5920079 -0.34984875 -0.20180708 -0.21760175 0.19646126 -0.33610246 -0.43835452
-0.49876004 -0.19019812 0.45957977 -1.0515709 0.3248265 -0.34369838 0.07684296 0.28916073
0.38110495 -0.45156518 -0.15727156 0.083959945 -0.03095397 -0.25872186 -0.58912414 -0.22654758
-0.8501158 0.7641846 0.5765084 -0.12216553 0.72734845 -0.6221195 1.3905007 -1.5321959
-0.93248737 -0.3704325 -0.5805663 1.3144194 -0.9294184 1.9323362 -0.78622633 -0.79984903
0.022372143 -0.06216208 0.3519512 -0.22061841 1.1233699 -1.6836305 0.18743502 0.58837724
-1.006213 0.27841222 0.120903656 0.5858287 0.0038565844 0.01433081 0.38643894
00000000: cac1 dd3f d48d 17bf 601f b3be 84a6 4ebe
00000010: fed2 5ebe 242d 493e 9f15 acbe 0170 e0be
00000020: 7a5d ffbe 4cc3 42be 0a4e eb3e e099 86bf
00000030: a94f a63e 3cf9 afbe d85f 9d3d e00c 943e
00000040: 3020 c33e 8d33 e7be cc0b 21be 31f3 ab3d
00000050: 2e93 fdbc 3177 84be d7d0 16bf 17fc 67be
00000060: 30a1 59bf 9aa1 433f 0e96 133f ec31 fabd
00000070: 8233 3a3f 3943 1fbf edfb b13f ff1e c4bf
00000080: 7eb7 6ebf 54a9 bdbe fe9f 14bf e53e a83f
00000090: 5dee 6dbf cb56 f73f 2146 49bf e8c2 4cbf
000000a0: c945 b73c aa9d 7ebd f332 b43e cbe9 61be
000000b0: 96ca 8f3f 3481 d7bf f7ee 3f3e e49f 163f
000000c0: 96cb 80bf 0c8c 8e3e 569c f73d dff8 153f
000000d0: c0be 7c3b c6cb 6a3c 53db c53e

1.running_var f4 [55]
3.0408695 0.14228992 0.419109 0.28054613 0.37487242 0.40655705 0.5412461 0.3799799
0.42215306 0.8191442 1.1709194 1.4071931 0.2245706 0.14337032 0.29861066 0.9865939
1.8463486 0.7865314 0.7617154 0.62538964 0.82477844 0.31777206 1.0625712 0.74789
0.8848463 0.058475234 0.260963 2.600343 0.10885851 0.2494054 0.34606275 0.59938955
0.21383797 0.11582904 0.16308548 0.32713833 0.38757962 0.5504544 0.22683597 0.15204003
0.1376356 0.108720325 0.18993968 0.10721227 0.18093388 0.32126763 0.08819778 0.1948277
0.27631998 0.037383556 0.0051351506 0.02875903 0.0009135557 0.0062882053 0.01587335
00000000: 9b9d 4240 73b4 113e 7495 d63e bea3 8f3e
00000010: 47ef bf3e 3f28 d03e 1b8f 0a3f ba8c c23e
00000020: 7224 d83e 6fb3 513f b0e0 953f e71e b43f
00000030: d6f5 653e abcf 123e 7fe3 983e 6b91 7c3f
00000040: 2755 ec3f 1f5a 493f c8ff 423f 8919 203f
00000050: ae24 533f 05b3 a23e 5502 883f b875 3f3f
00000060: 4a85 623f ba83 6f3d f19c 853e 056c 2640
00000070: 36f1 de3d 2164 7f3e 232f b13e 9871 193f
00000080: 57f8 5a3e c737 ed3d e1ff 263e ad7e a73e
00000090: d670 c63e 94ea 0c3f b047 683e 62b0 1b3e
000000a0: 59f0 0c3e c3a8 de3d 8c7f 423e 1b92 db3d
000000b0: bb46 393e 317d a43e 0aa1 b43d ea80 473e
000000c0: d079 8d3e 801f 193d c444 a83b 0f98 eb3c
000000d0: af7b 6f3a 4a0d ce3b d408 823c

0.weight f4 [64, 55]
0.042645816 0.0133847855 -0.03883292 -0.0014306946 -0.06482867 0.0526216 -0.04360936 -0.038313296
-0.068440974 0.044915833 -0.06899719 0.04329353 -0.0148366615 -0.14867647 0.10885736 0.06899285
0.048054114 -0.06305739 -0.100444585 0.053710856 -0.10764108 0.06181012 0.15049393 -0.052637942
-0.12539363 0.09298888 -0.13230161 -0.012833064 -0.09193686 0.043706916 0.123979144 -0.09127556
-0.066768266 0.09781833 0.06567688 0.08042098 -0.09931304 0.120014794 -0.040197764 -0.07525352
-0.0667931 -0.0014743006 0.09281189 -0.04642126 -0.09016132 0.0207869 -0.14168152 -0.09635973
0.026514303 0.102974094 -0.091711864 0.07056301 -0.10170435 -0.037118107 0.11131256 0.037590496
-0.07176918 -0.05631753 0.022184141 0.07191005 0.06962228 0.016303211 -0.018574258 0.10334837
-0.14493018 -0.0027913938 -0.09648092 -0.021349527 -0.009993809 0.14960445 0.0371282 -0.07667043
0.057828244 -0.006158501 -0.085915685 -0.1061766 0.022436297 -0.067752376 -0.07927035 -0.070340015
-0.08178491 -0.08034372 0.0060323956 0.0069046486 0.087336935 -0.10511432 0.11152555 0.14114761
-0.12880065 0.099499196 0.103433564 -0.11341087 0.05928205 0.061053555 0.056335617 -0.043537576
-0.06953729 -0.009648293 -0.04828993 0.07790985 -0.10238289 0.10900846 -0.03876974 0.070130624
-0.045597978 -0.028182533 -0.0031557556 -0.14292537 0.06929143 0.10734975 -0.08062756 0.0401283
-0.11624291 -0.043097794 -0.05682788 -0.10909646 0.06090268 0.07613696 0.030301316 0.020683762
-0.057388652 0.072987705 -0.085831545 -0.032327 -0.029107448 -0.06905855 0.094041474 0.06996053
0.090259284 -0.033397347 -0.11286063 -0.04439317 -0.09187121 0.053060636 0.112209104 0.10973273
0.12252209 -0.109848104 0.10291945 -0.1234329 0.011047847 0.02746672 -0.019878069 -0.05140295
-0.06021516 0.08623412 -0.07933842 0.029675042 0.040079992 0.105345786 0.0015704453 0.124143176
-0.12418347 -0.06559534 -0.110341474 0.009548797 -0.08133487 0.087306306 -0.05066167 -0.019516328
0.11930416 -0.15614401 0.04299773 -0.09260797 0.052640047 -0.052132394 -0.11337609 0.049934253
0.03260424 0.035513062 0.05713946 -0.033343058 -0.045315757 0.123416424 -0.015917739 0.09645568
0.10600794 -0.13519092 -0.029599318 0.0008157066 -0.10134784 0.025251612 -0.053017095 -0.07813993
0.085459195 0.059318904 0.122166626 -0.027354963 -0.043670215 -0.09830349 -0.012919987 0.08321614
-0.047245353 -0.06183749 0.10447768 -0.015957557 0.03087716 0.124674186 0.12381761 0.12625323
-0.1317382 0.029513342 0.09885363 0.124424525 -0.1014147 0.12448256 -0.08823442 -0.076900266
-0.08091839 -0.080660656 -0.016095309 0.003008776 -0.075536124 0.101843484 -0.053722087 0.12151491
-0.0867673 0.06485257 -0.058703437 -0.04679827 0.04818661 -0.016525974 -0.1122496 -0.0069383285
-0.07791368 -0.049456485 0.09819259 -0.002153328 -0.025320357 0.12348981 0.0024728815 0.08619252
0.0831843 0.002375615 -0.0203853 -0.079681315 0.13904497 0.02807231 0.08446029 0.058322433
-0.0027331472 -0.13844924 0.068893015 -0.035391975 0.023146937 -0.053472385 0.10107131 0.13812616
-0.08423556 -0.04104202 -0.09916806 0.042667445 -0.09492556 -0.10841117 -0.11606375 -0.10032765
00000000: 61ad 2e3d dc4b 5b3c 450f 1fbd 2586 bbba
00000010: e5c4 84bd bf89 573d ba9f 32bd 67ee 1cbd
00000020: c82a 8cbd aaf9 373d 664e 8dbd 8e54 313d
00000030: 7815 73bc a53e 18be 9cf0 de3d 204c 8d3d
00000040: 64d4 443d 3c24 81bd e4b5 cdbd eaff 5b3d
00000050: ed72 dcbd 9c2c 7d3d 151b 1a3e e29a 57bd
00000060: 3067 00be f470 be3d 137a 07be c641 52bc
00000070: 6449 bcbd 0606 333d c7e8 fd3d aeee babd
00000080: cdbd 88bd fa54 c83d 9a81 863d c1b3 a43d
00000090: a364 cbbd 51ca f53d 69a6 24bd 841e 9abd
000000a0: d2ca 88bd 523d c1ba 2914 be3d 3824 3ebd
000000b0: 80a6 b8bd 4a49 aa3c f614 11be 4058 c5bd
000000c0: 8634 d93c 15e4 d23d 6ed3 bbbd 5783 903d
000000d0: 5f4a d0bd 2809 18bd d7f7 e33d 7ef8 193d
000000e0: b8fb 92bd 36ad 66bd 84bb b53c 9445 933d
000000f0: 2096 8e3d 508e 853c 0b29 98bc 4fa8 d33d
00000100: 9468 14be d1ef 36bb ca97 c5bd 34e5 aebc
00000110: 13bd 23bc e931 193e bd13 183d 6305 9dbd
00000120: 4fdd 6c3d 40cd c9bb 90f4 afbd 1e73 d9bd
00000130: 53cc b73c c2c1 8abd 7e58 a2bd 6d0e 90bd
00000140: d97e a7bd 408b a4bd 67ab c53b 6440 e23b
00000150: b5dd b23d 2d46 d7bd 8267 e43d 0089 103e
00000160: 51e4 03be 3cc6 cb3d fad4 d33d f543 e8bd
00000170: bcd1 723d 4b13 7a3d 2dc0 663d 7554 32bd
00000180: 9169 8ebd e013 1ebc a9cb 45bd 338f 9f3d
00000190: 1fae d1bd d43f df3d 05cd 1ebd a5a0 8f3d
000001a0: f2c4 3abd 0edf e6bc cbd0 4ebb 075b 12be
000001b0: aae8 8d3d 30da db3d 1020 a5bd 935d 243d
000001c0: c310 eebd 5087 30bd 5ac4 68bd f76d dfbd
000001d0: 1775 793d b2ed 9b3d 773a f83c fe70 a93c
000001e0: 5d10 6bbd 947a 953d 73c8 afbd 5169 04bd
000001f0: be72 eebc 926e 8dbd d198 c03d 7747 8f3d
00000200: dcd9 b83d a8cb 08bd 7923 e7bd 9dd5 35bd
00000210: f926 bcbd 1c56 593d e3cd e53d 8ebb e03d
00000220: ddec fa3d 0bf8 e0bd 6fc7 d23d 63ca fcbd
00000230: 0702 353c e301 e13c 55d7 a2bc e68b 52bd
00000240: 2ca4 76bd 849b b03d 2e7c a2bd 1319 f33c
00000250: eb2a 243d 88bf d73d 66d7 cd3a c73e fe3d
00000260: e753 febd da56 86bd b6fa e1bd 8f72 1c3c
00000270: e592 a6bd a6cd b23d 9c82 4fbd b5e0 9fbc
00000280: bd55 f43d 37e4 1fbe 631e 303d 3fa9 bdbd
00000290: 179d 573d c788 55bd b931 e8bd dc87 4c3d
000002a0: 068c 053d 2576 113d 110b 6a3d bb92 08bd
000002b0: 049d 39bd c0c1 fc3d eb65 82bc 8e8a c53d
000002c0: b11a d93d 7d6f 0abe 457a f2bc 25d5 553a
000002d0: 758f cfbd 78dc ce3c 7428 59bd d407 a0bd
000002e0: 3b05 af3d 61f8 723d 7f32 fa3d 8417 e0bc
000002f0: 8adf 32bd 5753 c9bd 5aae 53bc 396d aa3d
00000300: 5884 41bd 4f49 7dbd 65f8 d53d 6cb9 82bc
00000310: 19f2 fc3c 2e55 ff3d 1694 fd3d 8748 013e
00000320: 61e6 06be f7c5 f13c c673 ca3d 49d2 fe3d
00000330: 83b2 cfbd b6f0 fe3d 3fb4 b4bd e37d 9dbd
00000340: 8ab8 a5bd 6a31 a5bd 4fda 83bc e32e 453b
00000350: afb2 9abd 5193 d03d b10b 5cbd cfdc f83d
00000360: 0eb3 b1bd 6dd1 843d 0473 70bd 8baf 3fbd
00000370: 535f 453d 7b61 87bc 1ee3 e5bd eb5a e3bb
00000380: 3591 9fbd e292 4abd 3219 c93d d91e 0dbb
00000390: a36c cfbc 3ae8 fc3d 1110 223b b485 b03d
000003a0: 885c aa3d 35b0 1b3b 13ff a6bc f52f a3bd
000003b0: ce61 0e3e e7f7 e53c 84f9 ac3d 81e3 6e3d
000003c0: 9a1e 33bb a3c5 0dbe c817 8d3d 2df7 10bd
000003d0: a59e bd3c dc05 5bbd 7afe ce3d f270 0d3e
000003e0: b183 acbd ad1b 28bd a018 cbbd 0fc4 2e3d
000003f0: 5568 c2bd ad06 debd d5b2 edbd 9578 cdbd

0.bias f4 [64]
0.03606143 -0.05770902 -0.1192951 -0.120747074 -0.013430377 -0.021162823 -0.0887279 0.08999647
-0.033616822 0.0759956 -0.04198228 -0.048781067 -0.06288555 -0.01541916 -0.031222375 -0.046343453
0.1392753 0.105241 0.1426836 0.13130984 -0.050541405 0.0718716 -0.06453382 0.11647461
-0.023001608 -0.12893817 -0.075737335 0.012999805 -0.103604764 0.024941199 -0.0024523917 -0.09610895
0.11325782 -0.024865003 0.11604788 -0.032360803 0.09606734 0.14517666 -0.08655417 0.058372058
0.08572039 -0.00027169482 -0.13878535 -0.03514749 0.02364326 -0.09882461 0.08762237 -0.09175814
-0.03982491 0.04800104 -0.14218591 0.101456724 0.035316803 0.034983963 -0.09321701 -0.08494571
-0.1017315 -0.11995536 0.14767763 -0.058665205 0.060713034 -0.007682581 -0.038400758 -0.11621486
00000000: 26b5 133d 4b60 6cbd fd50 f4bd 3e4a f7bd
00000010: 150b 5cbc a85d adbc f9b6 b5bd 1250 b83d
00000020: cbb1 09bd 95a3 9b3d 9cf5 2bbd a8ce 47bd
00000030: 24ca 80bd a5a0 7cbc 11c6 ffbc a2d2 3dbd
00000040: 2f9e 0e3e 9888 d73d a61b 123e 1676 063e
00000050: 8104 4fbd 6b31 933d 4f2a 84bd 3e8a ee3d
00000060: de6d bcbc 5e08 04be 2d1c 9bbd 22fd 543c
00000070: bc2e d4bd 7c51 cc3c 4eb8 20bb c5d4 c4bd
00000080: b7f3 e73d b1b1 cbbc 83aa ed3d c38c 04bd
00000090: f4be c43d 31a9 143e 5043 b1bd 8a17 6f3d
000000a0: 2c8e af3d 4372 8eb9 bf1d 0ebe d1f6 0fbd
000000b0: 83af c13c 8f64 cabd 5b73 b33d b1eb bbbd
000000c0: 721f 23bd bd9c 443d 2f99 11be 8bc8 cf3d
000000d0: 5aa8 103d 584b 0f3d 8fe8 bebd 04f8 adbd
000000e0: 9b58 d0bd 28ab f5bd ce38 173e ed4a 70bd
000000f0: 3bae 783d 29be fbbb 1d4a 1dbd 0e02 eebd

2.weight f4 [64]
0.9842589 1.0134249 1.0154909 0.98502827 1.0069156 0.9728141 1.0051068 0.99544466
0.99885106 1.0152754 0.9829411 0.9779546 1.0029302 1.0074449 0.99661905 0.983818
0.9959872 1.0154464 1.0064676 0.99827516 0.99931663 0.98825574 0.9915629 1.0085121
1.0348006 1.0119536 1.0360014 1.0084926 0.9979488 1.0094383 1.017721 0.9900558
0.97723734 1.0043166 1.0120838 0.9853629 0.9704658 0.9787424 1.0019855 0.99981123
0.9880546 1.0131524 0.9681376 1.0058657 0.9932165 1.0165805 1.0026805 1.0171256
0.9851445 0.980401 1.0034772 1.005904 0.99433815 1.0105639 1.0000763 0.99399686
0.98626626 0.98078537 1.014632 0.9999365 0.9958405 0.97815603 1.0242897 1.0014638
00000000: 64f8 7b3f e8b7 813f 9bfb 813f d02a 7c3f
00000010: 9ce2 803f 580a 793f 57a7 803f 76d5 7e3f
00000020: b4b4 7f3f 8bf4 813f 07a2 7b3f 3c5b 7a3f
00000030: 0460 803f f4f3 803f 6d22 7f3f 7fdb 7b3f
00000040: 04f9 7e3f 26fa 813f eed3 803f f68e 7f3f
00000050: 37d3 7f3f 54fe 7c3f 11d7 7d3f ed16 813f
00000060: 5974 843f b287 813f b29b 843f 4916 813f
00000070: 9379 7f3f 4635 813f af44 823f 4c74 7d3f
00000080: 3a2c 7a3f 728d 803f f68b 813f be40 7c3f
00000090: 7270 783f dd8e 7a3f 1041 803f a1f3 7f3f
000000a0: 25f1 7c3f faae 813f ded7 773f 35c0 803f
000000b0: 7043 7e3f 4f1f 823f d657 803f 2c31 823f
000000c0: 6e32 7c3f 8ffb 7a3f f171 803f 76c1 803f
000000d0: f28c 7e3f 285a 813f 8002 803f 9476 7e3f
000000e0: f27b 7c3f c014 7b3f 76df 813f d7fb 7f3f
000000f0: 67ef 7e3f 6f68 7a3f ed1b 833f f72f 803f

2.bias f4 [64]
-0.016843177 0.008499089 0.015668305 -0.019031089 -0.010156529 -0.018538784 0.036848042 0.0073628305
-0.02215021 0.009109302 -0.035176713 0.007239618 -0.022950675 -0.027355675 0.013042989 -0.009302682
-0.011374424 0.02499759 -0.004084926 -0.0032368791 -0.025600638 -0.023169106 0.012147808 -0.0057291267
0.00093780446 -0.0021279622 0.008467278 0.0357447 0.018778035 0.02968317 -0.0022374992 0.001084516
0.031128813 0.006494346 -0.0190409 0.0047773076 -0.014859657 0.010502757 0.029260732 0.02578372
0.017661162 0.009704908 0.003081753 -0.016913584 0.019680822 -0.014160573 0.006846328 0.01866318
0.01819858 0.03184534 -0.0058035804 0.032826122 -0.022177074 -0.0058386014 -0.028607467 -0.0035507956
-0.0002582926 0.014679322 -0.032831363 -0.012074513 -0.020286664 -0.00587747 -0.023313709 -0.0013628954
00000000: b4fa 89bc c33f 0b3c d15a 803c 16e7 9bbc
00000010: 9267 26bc a6de 97bc f9ed 163d e643 f13b
00000020: 5b74 b5bc 2f3f 153c 7515 10bd 513a ed3b
00000030: 0e03 bcbc 0219 e0bc 43b2 553c 476a 18bc
00000040: cb5b 3abc bfc7 cc3c d8da 85bb d221 54bb
00000050: 6eb8 d1bc 23cd bdbc 9a07 473c 66bb bbbb
00000060: fed6 753a 4875 0bbb 57ba 0a3c 0969 123d
00000070: 65d4 993c 1f2a f33c 02a3 12bb 5226 8e3a
00000080: da01 ff3c 86ce d43b a9fb 9bbc f68a 9c3b
00000090: eb75 73bc c113 2c3c 34b4 ef3c 6138 d33c
000000a0: 24ae 903c 5601 1f3c 3cf7 493b 5b8e 8abc
000000b0: ad39 a13c bf01 68bc 2957 e03b 86e3 983c
000000c0: 3015 953c 4270 023d f62b bebb af74 063d
000000d0: b2ac b5bc bd51 bfbb 355a eabc 77b4 68bb
000000e0: 726b 87b9 8a81 703c 2e7a 06bd 2ed4 45bc
000000f0: 3830 a6bc cb97 c0bb 64fc bebc 2ea3 b2ba

2.running_mean f4 [64]
0.296023 0.165472 0.1477345 0.2518802 0.222045 0.28370917 0.17051978 0.24336962
0.15488692 0.30165106 0.17303318 0.13878457 0.15108809 0.23625208 0.20706803 0.19638881
0.2910107 0.23974438 0.35532036 0.27906638 0.22846906 0.21220525 0.1991508 0.3471135
0.23156276 0.21235186 0.12313819 0.1807773 0.14152968 0.20846196 0.16877688 0.19257252
0.2690165 0.14394566 0.239552 0.17742251 0.24840496 0.29668945 0.16286595 0.274697
0.21184638 0.21147867 0.15467142 0.18328393 0.22673298 0.14023384 0.2231133 0.1958366
0.20374632 0.2779649 0.2114534 0.21490596 0.26601723 0.24636187 0.1613566 0.1327397
0.15638594 0.18543896 0.33743873 0.19504279 0.24883676 0.21165724 0.23328227 0.15822221
00000000: 5490 973e 7e71 293e b647 173e 71f6 803e
00000010: c45f 633e 5442 913e bd9c 2e3e e335 793e
00000020: ad9a 1e3e 0272 9a3e 9c2f 313e 8b1d 0e3e
00000030: d6b6 1a3e 11ec 713e a409 543e 261a 493e
00000040: 5bff 943e 8d7f 753e 8dec b53e cae1 8e3e
00000050: cbf3 693e 554c 593e 30ee 4b3e dcb8 b13e
00000060: ca1e 6d3e c472 593e e02f fc3d af1d 393e
00000070: 28ed 103e 0d77 553e d9d3 2c3e bb31 453e
00000080: 88bc 893e 7e66 133e 1f4d 753e 3fae 353e
00000090: df5d 7e3e aee7 973e 55c6 263e 16a5 8c3e
000000a0: 42ee 583e dd8d 583e 2f62 1e3e c8ae 3b3e
000000b0: b12c 683e 7699 0f3e d077 643e 6489 483e
000000c0: e0a2 503e 6a51 8e3e 3d87 583e 4f10 5c3e
000000d0: 6933 883e 4946 7c3e aa3a 253e eaec 073e
000000e0: a323 203e b6e3 3d3e c5c4 ac3e 4cb9 473e
000000f0: 10cf 7e3e adbc 583e 8ce1 6e3e 0105 223e

2.running_var f4 [64]
0.15140349 0.08422275 0.061420843 0.47118312 0.2438884 0.3826278 0.16130757 0.10138552
0.08031534 0.10435515 0.06103104 0.061041877 0.09025386 0.15362339 0.19120899 0.20112817
0.13328631 0.1632153 0.22075285 0.17871772 0.2185838 0.06430166 0.11848151 0.12710261
0.15252379 0.20847696 0.043423884 0.07975063 0.07395306 0.11069652 0.07611582 0.09744016
0.11982314 0.08039239 0.118927844 0.17032987 0.084752515 0.13081896 0.10733319 0.104555145
0.06891316 0.10447402 0.09404899 0.09653934 0.2689932 0.061989065 0.10712152 0.13410231
0.17637834 0.2603425 0.22950721 0.06384375 0.1994672 0.16341715 0.060232334 0.051365778
0.05057634 0.13607472 0.22769988 0.15338399 0.111691594 0.13630998 0.09388835 0.11653557
00000000: 8409 1b3e fa7c ac3d 6c94 7b3d ea3e f13e
00000010: e1bd 793e cae7 c33e d02d 253e 36a3 cf3d
00000020: 5e7c a43d 27b8 d53d affb 793d 0c07 7a3d
00000030: 04d7 b83d 734f 1d3e 4acc 433e 8bf4 4d3e
00000040: 357c 083e e921 273e 090d 623e c701 373e
00000050: 6fd4 5f3e 97b0 833d 6fa6 f23d 3027 023e
00000060: 322f 1c3e fc7a 553e 3edd 313d 4c54 a33d
00000070: b474 973d dbb4 e23d 9ce2 9b3d b58e c73d
00000080: d665 f53d c4a4 a43d 7190 f33d f46a 2e3e
00000090: ba92 ad3d 68f5 053e 81d1 db3d 0221 d63d
000000a0: 5822 8d3d 7af6 d53d c29c c03d 6bb6 c53d
000000b0: 7ab9 893e 3fe8 7d3d 8762 db3d 1e52 093e
000000c0: 869c 343e 9d4b 853e f003 6b3e 83c0 823d
000000d0: 2141 4c3e d356 273e 2eb6 763d ec64 523d
000000e0: 2329 4f3d 2c57 0b3e 282a 693e b110 1d3e
000000f0: 90be e43d d894 0b3e 8948 c03d 33aa ee3d

3.weight f4 [16, 64]
-0.089584194 0.067479454 -0.028130133 0.064551696 0.096758984 0.0005757516 0.032986462 0.005834378
-0.10116115 0.11447261 -0.10423352 -0.0059938906 0.11804286 -0.051369257 0.019871563 0.056833427
-0.07965561 0.029964723 -0.034870896 -0.07077789 -0.09414973 0.06415282 -0.048487153 0.09805524
0.14731273 0.0025184823 0.10105175 -0.03510679 0.07325517 0.00326016 -0.07487683 -0.041171066
-0.05103344 0.019041087 0.01797189 0.09245275 0.016728582 -0.03423035 0.0023810295 0.07823432
-0.04790598 0.098977 -0.01421435 0.015249279 0.0852106 -0.11611634 0.07006344 0.13634701
0.10190977 0.014350928 -0.05201388 -0.079965636 0.07685965 0.022248339 0.11314993 0.08194795
-0.08348983 0.09889006 -0.005192434 -0.13847955 0.022176769 -0.07173416 -0.049509004 -0.046139777
-0.09316189 -0.08610715 0.120300606 -0.06283056 -0.021631004 -0.012065106 0.10158427 0.04611181
-0.06726947 0.019682333 -0.030739948 -0.007990491 -0.074773 -0.08490126 -0.022529757 -0.09283014
-0.040408645 0.042090762 -0.02325867 -0.088952996 -0.07627055 -0.06647713 0.07038609 -0.08615581
-0.0020234415 0.06719272 -0.1274402 0.05179706 0.05574982 0.12782572 0.045841202 -0.04286852
0.12737972 0.004234618 -0.01006173 0.03912423 -0.08163244 0.08912253 0.046457868 0.0752497
0.061219532 -0.11215712 0.02304737 -0.03782518 0.08058121 0.021446755 0.015516526 0.062139124
0.08155352 0.03298159 0.09134205 0.13435237 -0.09418196 -0.10404675 -0.10026322 -0.08733746
0.05920153 0.07906941 0.013210721 -0.040077157 -0.10602337 -0.12641795 0.026539974 0.042117953
0.040244624 -0.02427654 0.04290234 0.012710729 -0.06997603 0.089391865 -0.006242907 -0.0025605662
-0.07277447 0.06013959 0.09351639 0.03811716 -0.049686413 -0.061380904 -0.11372815 0.0040344363
0.06942111 -0.09328717 -0.06984709 -0.08316386 0.0046005263 0.08462173 -0.09161746 -0.11027486
0.021146476 0.09867498 0.07733446 -0.053323425 -0.04215753 -0.086685896 0.04038396 0.067772456
-0.022593165 -0.096729375 0.13793927 0.034846634 0.036139783 0.11445473 -0.042347804 -0.045594405
0.010032719 0.10278558 0.06448456 0.005185468 0.10473957 0.024811747 -0.058861196 -0.015870925
0.099006675 -0.09004182 0.1127837 -0.08860084 -0.05754002 -0.100323156 0.08676667 -0.02122395
-0.047703326 -0.044143233 0.09120856 0.14093347 -0.012841447 0.040794406 -0.031648554 0.030694168
0.024738545 -0.113387346 0.07562486 0.09067249 0.0871235 0.012109864 -0.040158823 0.09099309
-0.10498953 -0.120276555 -0.0013740853 0.042638183 0.025238985 0.03052514 -0.011746225 -0.011769265
-0.06051502 -0.108671054 -0.00856087 0.045153473 -0.059920657 -0.027009152 -0.011420386 0.066173434
0.07439335 -0.054483168 -0.01996299 -0.16410203 0.007819494 -0.072199896 0.07202786 0.013392048
-0.009980023 -0.024367088 0.08078328 0.012641086 0.057448905 0.01957397 0.006946327 -0.031014457
-0.097011626 -0.01745542 -0.10515882 -0.019290851 -0.032043517 0.13038817 -0.05837213 -0.111062326
0.04440861 -0.07318202 -0.014076723 -0.089551285 0.022667248 0.085197836 0.1324161 -0.036584552
-0.034408003 0.004058241 0.051976766 0.049268745 0.08427171 -0.04760933 0.12070753 -0.11623116
00000000: eb77 b7bd ab32 8a3d 2a71 e6bc ae33 843d
00000010: 9329 c63d 09ee 163a d01c 073d 4f2e bf3b
00000020: 942d cfbd 9e70 ea3d 6278 d5bd 6668 c4bb
00000030: 74c0 f13d 9268 52bd b0c9 a23c 2bca 683d
00000040: 7b22 a3bd 9478 f53c c9d4 0ebd 00f4 90bd
00000050: 93d1 c0bd 8e62 833d 779a 46bd 30d1 c83d
00000060: 26d9 163e 1f0d 253b 38f4 ce3d 23cc 0fbd
00000070: ce06 963d 69a8 553b 0659 99bd fea2 28bd
00000080: 7108 51bd 0efc 9b3c c939 933c de57 bd3d
00000090: 610a 893c 2035 0cbd 0c0b 1c3b 5139 a03d
000000a0: 1039 44bd 74b4 ca3d 4ee3 68bc 1dd8 793c
000000b0: e582 ae3d 67ce edbd 6c7d 8f3d 8d9e 0b3e
000000c0: 12b6 d03d 2820 6b3c 820c 55bd 06c5 a3bd
000000d0: 9868 9d3d 2642 b63c 27bb e73d 54d4 a73d
000000e0: b7fc aabd df86 ca3d 4b25 aabb 95cd 0dbe
000000f0: 0eac b53c 5ce9 92bd f4c9 4abd 10fd 3cbd
00000100: a9cb bebd f258 b0bd 2a60 f63d 4fad 80bd
00000110: 8133 b1bc b9ac 45bc 6a0b d03d bddf 3c3d
00000120: 93c4 89bd d83c a13c 58d2 fbbc 8cea 02bc
00000130: 9622 99bd b6e0 adbd 5390 b8bc ba1d bebd
00000140: 8983 25bd 5d67 2c3d f788 bebc fd2c b6bd
00000150: bc33 9cbd 2925 88bd 9526 903d 7572 b0bd
00000160: b79b 04bb 569c 893d af7f 02be 2729 543d
00000170: ec59 643d bfe4 023e fcc3 3b3d e796 2fbd
00000180: d46f 023e 8dc2 8a3b f4d9 24bc bb40 203d
00000190: e92e a7bd df85 b63d 9b4a 3e3d 841c 9a3d
000001a0: 55c1 7a3d a2b2 e5bd d7cd bc3c 93ee 1abd
000001b0: c307 a53d 1bb1 af3c 0739 7e3c 9885 7e3d
000001c0: 8805 a73d b417 073d 8a11 bb3d ab93 093e
000001d0: 79e2 c0bd 7616 d5bd ce56 cdbd fbdd b2bd
000001e0: 4e7d 723d 25ef a13d c871 583c f227 24bd
000001f0: c822 d9bd b573 01be 5c6a d93c e083 2c3d
00000200: 8cd7 243d 98df c6bc 5dba 2f3d a940 503c
00000210: 984f 8fbd 1513 b73d 4d91 ccbb 2ccf 27bb
00000220: c80a 95bd ee54 763d 8585 bf3d bd20 1c3d
00000230: fb83 4bbd 8b6a 7bbd 4eea e8bd 4e33 843b
00000240: a82c 8e3d 580d bfbd fe0b 8fbd d051 aabd
00000250: 03c0 963b 284e ad3d efa1 bbbd c9d7 e1bd
00000260: 603b ad3c 1c16 ca3d 8861 9e3d aa69 5abd
00000270: 60ad 2cbd 6088 b1bd a769 253d 49cc 8a3d
00000280: 4d15 b9bc 0d1a c6bd f43f 0d3e 58bb 0e3d
00000290: 4f07 143d 3e67 ea3d e474 2dbd 33c1 3abd
000002a0: 4660 243c 3f81 d23d 7b10 843d dcea a93b
000002b0: b381 d63d 0142 cb3c 7018 71bd be03 82bc
000002c0: 03c4 ca3d d967 b8bd 24fb e63d 5b74 b5bd
000002d0: 16af 6bbd 3a76 cdbd b9b2 b13d d9dd adbc
000002e0: 9064 43bd 89cf 34bd 8ecb ba3d dd50 103e
000002f0: ef64 52bc 0918 273d eaa1 01bd 5672 fb3c
00000300: 7da8 ca3c a037 e8bd 35e1 9a3d 80b2 b93d
00000310: ce6d b23d 7368 463c 947d 24bd 965a ba3d
00000320: c004 d7bd 8e53 f6bd a71a b4ba 60a5 2e3d
00000330: fdc1 ce3c dc0f fa3c 3d73 40bc e0d3 40bc
00000340: 99de 77bd ee8e debd e442 0cbc d9f2 383d
00000350: 5d6f 75bd 4c42 ddbc 921c 3bbc f085 873d
00000360: 8a5b 983d be29 5fbd 6d89 a3bc 5d0a 28be
00000370: 561d 003c 8add 93bd 5883 933d 526a 5b3c
00000380: 4083 23bc 7d9d c7bc b471 a53d 8f1c 4f3c
00000390: 8b4f 6b3d 9759 a03c 049e e33b 0812 febc
000003a0: 08ae c6bd abfe 8ebc 825d d7bd d907 9ebc
000003b0: 1040 03bd 7a84 053e 9d17 6fbd a574 e3bd
000003c0: cde5 353d 74e0 95bd 0ea2 66bc aa66 b7bd
000003d0: aab0 b93c 347c ae3d 1698 073e afd9 15bd
000003e0: 68ef 0cbd fefa 843b 97e5 543d 06ce 493d
000003f0: a596 ac3d 0002 43bd 8235 f73d 9a0a eebd

3.bias f4 [16]
-0.09191267 -0.009194775 -0.112474695 0.07723467 0.08489342 -0.072866365 -0.06670333 0.041347004
-0.07424749 0.068355754 -0.12920468 -0.10763842 -0.050332677 -0.08449198 0.1110525 -0.10854377
00000000: b63c bcbd aea5 16bc 2259 e6bd 362d 9e3d
00000010: 9adc ad3d f63a 95bd c19b 88bd 7a5b 293d
00000020: 110f 98bd 1afe 8b3d 3b4e 04be 8871 dcbd
00000030: a329 4ebd 220a adbd 7e6f e33d 324c debd

5.weight f4 [16]
1.0102755 1.0364648 1.0560832 1.0706488 1.0151391 1.041948 1.056985 1.0298538
0.9912333 1.041508 1.0495166 1.0633482 1.0160669 1.0908363 1.041066 1.0512786
00000000: b550 813f e1aa 843f bc2d 873f 050b 893f
00000010: 14f0 813f 8d5e 853f 494b 873f 40d2 833f
00000020: 77c1 7d3f 2250 853f 8f56 863f cb1b 883f
00000030: 7b0e 823f 86a0 8b3f a741 853f 4c90 863f

5.bias f4 [16]
0.14149757 0.13666151 -0.13913396 -0.15469296 0.13805784 0.14996924 -0.1457108 0.14200203
-0.13329251 0.14710747 -0.13867994 -0.14157365 -0.13667372 -0.187604 0.14471674 -0.14445306
00000000: bde4 103e fff0 0b3e 2279 0ebe d567 1ebe
00000010: 095f 0d3e 8991 193e 3635 15be fb68 113e
00000020: d57d 08be 57a3 163e 1d02 0ebe aff8 10be
00000030: 32f4 0bbe 431b 40be a030 143e 81eb 13be

5.running_mean f4 [16]
0.2052198 0.3070233 0.12841 0.21606672 0.32525116 0.16626278 0.21738338 0.2811772
0.18005864 0.2478507 0.103980936 0.13402022 0.17682257 0.110868886 0.34673423 0.086193174
00000000: 2425 523e 2832 9d3e e97d 033e 9840 5d3e
00000010: 5287 a63e ca40 2a3e c099 5e3e 75f6 8f3e
00000020: 4b61 383e 93cc 7d3e f5f3 d43d 993c 093e
00000030: fa10 353e 3a0f e33d 2687 b13e 0c86 b03d

5.running_var f4 [16]
0.22074609 0.18351799 0.08779635 0.11371009 0.18279693 0.075393125 0.15378913 0.12888467
0.16476874 0.09983125 0.037657086 0.07575636 0.10089579 0.054702505 0.15329649 0.02673993
00000000: 430b 623e 24ec 3b3e 93ce b33d d6e0 e83d
00000010: 1e2f 3b3e b667 9a3d e67a 1d3e 58fa 033e
00000020: 23b9 283e 5474 cc3d 513e 1a3d 2726 9b3d
00000030: 74a2 ce3d bc0f 603d c1f9 1c3e b30d db3c

6.weight f4 [1, 16]
-0.12200957 -0.30781928 0.3032959 0.115404844 -0.1942222 -0.11974232 0.14114097 -0.13900787
0.21460892 -0.119667366 0.29608884 0.21096179 0.21148363 0.08718511 -0.13178915 0.17619966
00000000: 27e0 f9bd 7d9a 9dbe 9a49 9b3e 6059 ec3d
00000010: 2fe2 46be 763b f5bd 4287 103e 1458 0ebe
00000020: 71c2 5b3e 2a14 f5bd f598 973e 5e06 583e
00000030: 2a8f 583e 1b8e b23d bcf3 06be af6d 343e
